.dart_tool/chrome-device/Default/optimization_guide_prediction_model_downloads/436a2831-8fdd-40f7-89a2-21e719a2a26d/model.tflite (tflite, 67216 bytes, 5 tensors)

dnn/hiddenlayer_1/bias/part_0 f4 [64]
000000 89 02 a4 3d ce a7 22 bc 70 e1 aa bc 82 61 b5 bc
       0.08008296 -0.009927703 -0.02085945 -0.022141222
000010 e0 df 94 bd df 6c 57 3d 54 d1 14 3c e1 c3 65 3d
       -0.07269263 0.052594062 0.009083111 0.056095008
000020 64 6f 19 be 9e 80 5b 3d 77 9d 90 bc fd ec 05 bd
       -0.14983898 0.053589456 -0.01765321 -0.032696713
000030 3d 0b 24 3d a6 b0 cd 3c 4e 7b ba bc 56 08 0d 3d
       0.04004978 0.025108647 -0.022763874 0.034431778
000040 12 72 b8 bb 2c a2 73 3d 34 f7 eb bc 75 5c 12 3d
       -0.0056288326 0.05948083 -0.0288044 0.035732705
000050 8b eb e4 bc 3c 9e 62 3d 86 0d de 3d 76 c1 6f bb
       -0.027944347 0.055326685 0.10842423 -0.0036583818
000060 fa da b8 bb d8 d9 c5 bc 0b 41 b3 bd c9 d9 77 3c
       -0.0056413384 -0.024151728 -0.0875264 0.015127608
000070 4d c3 99 3d 39 da 7b bc 23 29 e4 bb a7 2c f5 bb
       0.07507954 -0.015371853 -0.0069629117 -0.0074821296
000080 75 77 cf 3d 83 9a b4 3c 15 39 8d bc 4f d8 88 3c
       0.101302065 0.022046333 -0.017239133 0.016704706
000090 84 90 8e 3c 93 94 75 bd e6 a2 3d bd 5b e1 a8 bd
       0.017402895 -0.059956145 -0.04629793 -0.08246108
0000a0 23 5d 6d bd a3 5f 69 bd b0 4d 77 bd 85 72 9e bc
       -0.05795015 -0.056975972 -0.060376823 -0.019341717
0000b0 2e 37 9d bc ff 46 14 bd 2d b7 89 3d 76 89 86 3d
       -0.01919135 -0.03620052 0.06724391 0.06569187
0000c0 ed 58 30 bd 82 6a 08 bd 99 63 3f bd 52 6a 92 bc
       -0.043053556 -0.0333047 -0.046725843 -0.017872963
0000d0 93 b4 65 bd 45 72 db 39 ef dc 3f 3d ea a4 04 3c
       -0.056080412 0.00041856072 0.046841558 0.008095959
0000e0 e1 68 1d 3d b7 1a 95 bc b6 36 f3 3c ea 7c 92 3d
       0.0384301 -0.018201215 0.029689174 0.07152732
0000f0 03 d9 69 3c 00 ab c8 bb ad ee 1e bd 29 f6 83 bc
       0.014272931 -0.0061239004 -0.038801838 -0.01610859

dnn/hiddenlayer_0/bias/part_0 f4 [128]
000000 b1 17 79 3c 3c b6 b5 bd 18 86 32 bd 3e 90 7c bc
       0.015203402 -0.08872649 -0.043584913 -0.015415249
000010 01 49 63 bb 86 7b 82 bd 77 90 23 bd a8 3f d4 b9
       -0.0034680965 -0.063712165 -0.039932694 -0.0004048322
000020 35 cc 82 bd 61 6b a1 bd a0 e6 b3 bc 7f 61 c6 bd
       -0.06386606 -0.07881809 -0.021960557 -0.09686565
000030 65 bb 0a bd 31 9f f3 3c 5c f4 30 bd 95 84 1e bd
       -0.03387012 0.029738994 -0.04320179 -0.03870066
000040 f0 0c 00 3d dc c6 97 bb 2c f9 13 3d c6 e6 b6 bd
       0.03126234 -0.00463186 0.0361263 -0.08930735
000050 bf 24 57 3b fa 42 c6 3d 53 b3 a6 3d 37 ce 25 3c
       0.00328283 0.096807435 0.08139672 0.010119966
000060 66 b6 f2 3b 03 81 96 bd f2 d6 28 bd 03 66 86 bd
       0.0074069975 -0.07348826 -0.041220613 -0.06562426
000070 2c 78 f0 bc a1 e7 96 bd e5 a3 40 3c 35 fb cb 3c
       -0.029354177 -0.073683985 0.0117578255 0.024900058
000080 7a 8c 1f 3c 40 96 fb bc fe f0 04 bd cd cd 84 bd
       0.009738082 -0.030711293 -0.03245639 -0.06484566
000090 c1 9b 0c bd 54 f2 94 bd 1d 3d aa bd c0 df 28 3d
       -0.034328226 -0.07272783 -0.08312438 0.04122901
0000a0 0b 58 2a 3d f5 fa 90 bc a4 0a 72 3a 30 fb 91 3d
       0.04158787 -0.01769779 0.0009233153 0.07127988
0000b0 d3 3f 50 bc a8 02 0d 3c 8a ad 12 be 48 80 bc bc
       -0.012710529 0.00860659 -0.14324012 -0.023010388
0000c0 d4 43 a4 3c a5 7f 80 3c 40 50 06 3d ed 68 0d 3c
       0.020051874 0.015685866 0.032791376 0.008630973
0000d0 45 9b 70 3d 85 7e b1 3c a9 9c 9b bc 62 75 3a 3c
       0.058741827 0.021666775 -0.0189956 0.011380525
0000e0 4d 12 60 bb ad 49 9f ba 3d bf 2a 3b f7 bb 2f bc
       -0.0034190596 -0.0012152694 0.0026053928 -0.010725967
0000f0 72 d6 bd 3d bc 0f 3d 3b cc 21 37 bd fd fd 1e 3d
       0.09269418 0.002884849 -0.044709966 0.03881644
000100 ec af 7e 3c 87 7f 68 bc ca 74 56 bd 94 b1 76 bd
       0.015544873 -0.014190561 -0.052357472 -0.060227945
000110 05 34 81 3c 7a 84 a1 3d 48 e3 f5 3c cc 9d 7e 3c
       0.015771875 0.07886596 0.030015603 0.015540551
000120 f1 8b 79 bc 1e 0d a8 3d c2 c2 09 bd fa 6c f3 bb
       -0.015231119 0.08205627 -0.033633 -0.0074287625
000130 a4 a6 a9 3c e4 2e a9 bb f6 11 85 ba 9a 0b 57 3d
       0.020709343 -0.0051630605 -0.0010152448 0.0525013
000140 e8 9d 52 3a 2f 05 b7 bb 70 76 6f bd c3 40 d9 bb
       0.0008034394 -0.0055853347 -0.05846256 -0.0066300347
000150 38 2f a7 bd 78 73 43 bc 1f 85 25 3d c3 c2 cc 3c
       -0.08163303 -0.011929385 0.040410157 0.024995213
000160 da 54 2a 3d f8 f6 49 3c 0f 3f 74 bb 01 d8 a7 bc
       0.041584827 0.012326948 -0.003726903 -0.02048874
000170 0d d8 ad 3b 88 1c 85 3c e6 1b 65 be a7 3b 68 3d
       0.0053052963 0.016248956 -0.22373924 0.056697514
000180 3e d7 87 3b 5e 57 92 bd 8a 35 0f 3d 4d cd 8c bd
       0.004145532 -0.0714557 0.03496317 -0.068750955
000190 6d 91 7c bd b3 fb d4 bc 86 de 88 3c c9 34 f1 3d
       -0.061662126 -0.025998926 0.01670767 0.11777646
0001a0 bf 1b c6 3b 6e f2 90 3b 31 5e f8 3d 8e f3 3a 3d
       0.006045788 0.004423431 0.121273406 0.045642428
0001b0 20 7c d9 bc a8 5d 16 3a 0f 2e 31 be e5 92 13 3d
       -0.026548445 0.0005736002 -0.17302726 0.03602876
0001c0 59 cf 8b bc 05 48 ac bd a7 c3 4c bd d3 cf d7 3c
       -0.017066645 -0.08412174 -0.049991276 0.026344215
0001d0 11 31 c4 bd 6e f0 2c bd ee bf 24 3c f7 87 03 3d
       -0.09579671 -0.04222148 0.010055525 0.032112088
0001e0 f4 56 3c bd 19 10 ce 3d ee b4 16 3d d0 5c 14 bd
       -0.045981362 0.10061664 0.03679364 -0.036221325
0001f0 e4 9e 02 be 80 62 ac 3d 5f 6d 88 bd c3 9c 60 3d
       -0.12755924 0.08417225 -0.06661486 0.054837

dnn/hiddenlayer_0/MatMul f4 [128, 12]
000000 05 e5 05 bd c2 6e 0f 3e 46 56 fc bd 64 d9 13 3e
       -0.032689113 0.14007095 -0.12321143 0.14438397
000010 cf 06 af bd e0 d8 0e 3d 15 f5 3a 3d 65 fa 2d 3e
       -0.085462205 0.034874797 0.045643885 0.16990049
000020 d7 a5 0f bd 53 57 ff bd 00 e5 fe 3d ed f0 ee 3b
       -0.035070267 -0.12467828 0.12446022 0.007291904
000030 47 53 92 3d 40 cf 39 be 7e ba 47 3e 8a 5b d3 3c
       0.0714479 -0.18145466 0.19504735 0.025800485
000040 e9 5a 01 bd 58 79 99 3d e9 b1 cb 3d 76 62 6d 3e
       -0.03158084 0.074938476 0.09946043 0.23182091
000050 f2 9a 39 3d ce 00 7b bd df b3 b9 bd a0 8b 7b 3d
       0.045313783 -0.061280064 -0.09067511 0.061412454
000060 be 69 17 3e 12 d2 9f bd 41 57 19 be 00 75 4b 3c
       0.14786431 -0.078037396 -0.14974691 0.012418032
000070 5d da 8b 3c 27 45 06 be 3c f8 49 be 03 15 b7 bb
       0.017071897 -0.13112317 -0.197236 -0.0055872216
000080 d1 76 1e 3e 9c 01 75 bd 96 43 0a 3e 25 2d ca bd
       0.15475012 -0.059815988 0.13502344 -0.09871892
000090 be e5 87 be 5c 27 f6 3d f9 13 0e be 4e b2 b4 bc
       -0.26542467 0.12019226 -0.13874806 -0.022057679
0000a0 09 58 03 be e5 eb 2a 3e 2a ef 0a 3e bc 0b 13 3d
       -0.12826551 0.16691549 0.13567796 0.035899863
0000b0 49 bd 21 3e 28 b1 31 3e 4e 45 fe bd 11 0b 7f be
       0.15794863 0.17352736 -0.124155626 -0.24906565
0000c0 47 64 85 bd 9c 65 ad 3d c2 8e d7 3d 81 be e6 3d
       -0.06513267 0.08466646 0.10525276 0.112668045
0000d0 0d 81 2c 3d bc c2 0a be 74 74 fe bd a4 95 09 bc
       0.04211526 -0.13550848 -0.124245554 -0.0083974935
0000e0 7b 37 06 bd da 69 31 be 83 33 96 3d 55 aa 73 be
       -0.032767754 -0.17325535 0.07334044 -0.23795445
0000f0 f4 18 29 3d 4c 74 94 bd 8c 83 df 3d 80 e4 36 3d
       0.041283563 -0.07248744 0.109137625 0.04465151
000100 ac f2 23 3d d1 13 e9 3d 05 31 74 be 11 99 45 3e
       0.04002635 0.11380733 -0.23846824 0.19296671
000110 e9 f5 1c 3c 23 6b 0d bc 1e 47 4d bd 22 79 2e 3d
       0.009580114 -0.0086315 -0.05011665 0.04259599
000120 15 1f 1c 3e e8 98 03 be 9d fd 1f 3e 02 49 28 bd
       0.15246232 -0.12851298 0.1562409 -0.04108525
000130 3c cd d1 3d fc df 17 be bc 2c c3 3c 2c e9 1a be
       0.102442235 -0.14831537 0.023825042 -0.1512801
000140 10 4d 37 3d 3f 02 de 3c b5 f5 91 bc ba b6 f7 3d
       0.044751227 0.02710068 -0.017817358 0.12095399
000150 8c a3 9c bd 72 1c 09 3c fd 8c d5 3d 6d 10 67 be
       -0.076483816 0.008368598 0.10427282 -0.2256486
000160 1b 77 a8 3d 82 e5 ff 3c 02 ce 64 3e e1 62 30 be
       0.082258426 0.031237368 0.2234421 -0.1722522
000170 f0 0b 5b bd 6c 1f 23 3d 46 6f 44 3e 12 f5 11 bc
       -0.05347818 0.039824888 0.19183072 -0.008908527
000180 c9 78 fd 3d a8 6b c8 3d 17 1a 21 be 4c 9b 4f bd
       0.123765536 0.09786159 -0.15732609 -0.050685212
000190 73 a0 7c bc 0a ec a8 3d fe 81 8f be 56 c7 2b 3c
       -0.015419113 0.08248146 -0.28028864 0.010484537
0001a0 40 29 38 bd f2 e8 80 3d e1 34 28 3e 42 d4 1b bc
       -0.044961214 0.06294431 0.16426422 -0.009511055
0001b0 74 ee 2c be 0d 5b 24 3b fa 91 c4 bd 47 aa c6 3d
       -0.16887838 0.0025078685 -0.09598155 0.097004466
0001c0 8a 11 6b bd 6c b7 b1 3c 5c b6 61 be 8f e8 49 bd
       -0.057389773 0.021693908 -0.22042221 -0.04929405
0001d0 86 2f 7b 3c 2b 9e a1 bd 6a ef 31 be 61 89 8c 3d
       0.015331155 -0.07891496 -0.17376485 0.068621404
0001e0 a2 5c 39 be ce 54 f1 3d 59 6e 75 3e 0d 33 e3 bd
       -0.18101743 0.11783753 0.23967876 -0.110937215
0001f0 83 60 3b 3d 86 46 b3 bd 3b eb 3c be 5c e3 00 3d
       0.045746338 -0.08753686 -0.18449108 0.031466827
000200 72 b0 dd 3a 98 a8 2a bc 80 52 02 be 80 9b 0a 3d
       0.0016913547 -0.010416172 -0.12726784 0.033839703
000210 04 0d 04 be 9f 4f 1d be cb 75 34 3e 38 90 41 3e
       -0.1289559 -0.15362404 0.1762306 0.18902671
000220 57 a8 83 bd f5 d9 36 be d2 85 fe bd 82 27 92 3c
       -0.06428593 -0.17856582 -0.12427868 0.017841104
000230 2c 95 4d be 47 d2 10 3e 0e 8d 43 bd 76 f1 16 3e
       -0.20076436 0.14142714 -0.047741942 0.14740548
000240 84 2d 1f be cb 26 24 bc 09 8e 48 bd b1 f1 10 3e
       -0.15544707 -0.010019015 -0.04896358 0.14154698
000250 83 9b 4d be e1 0a 07 3e 4c 22 4d 3c 65 07 49 bc
       -0.20078854 0.13187744 0.012520384 -0.012269829
000260 47 90 1d bd d0 ef f1 3b b5 44 15 3e c9 83 15 3e
       -0.03846767 0.007383324 0.14576991 0.14601053
000270 71 97 30 3e 27 d8 18 be 0a c2 08 3e 5a 9f 68 bc
       0.1724527 -0.14926206 0.1335527 -0.014198149
000280 a6 9f a7 3d c8 a2 33 3e e1 7e fc bd 94 c6 67 bb
       0.081847474 0.17542565 -0.12328888 -0.0035366165
000290 ee a3 7f 3d 67 d0 cd bd 5c 6c 3d be d9 8b 35 3e
       0.062412195 -0.10049515 -0.18498367 0.17729129
0002a0 00 66 e8 bb 39 b2 1b 3d 21 57 92 bd 8f 88 9b 3d
       -0.0070922375 0.038011763 -0.07145525 0.07594406
0002b0 85 7b 14 be 98 3c 48 be 19 54 18 3e fa 87 64 bd
       -0.14500244 -0.19554365 0.1487583 -0.05579374
0002c0 9f 25 10 3e fc 77 fe 3d 4d 9b 2c be cf d2 45 3e
       0.14076851 0.12425229 -0.16856118 0.19318698
0002d0 42 fb 27 bd bc af 71 3e 99 34 1b be 85 4e de 3d
       -0.041011102 0.23602194 -0.15156783 0.1085482
0002e0 09 e8 0b bd db 4d 55 be 16 6d 44 3d 87 b5 e5 39
       -0.034156833 -0.20830481 0.047955595 0.00043813532
0002f0 63 b3 5f be e8 c0 e3 3d 1d 40 d6 bd a2 4c 37 3d
       -0.21845774 0.11120778 -0.104614474 0.044750817
000300 2f ed bc 3c b1 8d 26 be 40 e7 19 3d ba 35 0d be
       0.023062317 -0.16264988 0.037574053 -0.13790026
000310 c0 a8 f6 3d 4b 44 f4 bd 13 04 21 be c3 e0 af 3c
       0.12043905 -0.11927088 -0.1572421 0.02146948
000320 db 67 8e 3c 4f cc 94 3b b2 12 21 3e 96 11 48 3e
       0.017383507 0.004540957 0.15729788 0.19537959
000330 d8 73 4b 3e 0b 85 f0 bb e0 f9 3e be df fa b5 3c
       0.1986841 -0.0073400787 -0.18650007 0.022214351
000340 be e7 1c be 73 49 32 be 7d c7 20 be 16 ba 35 be
       -0.15322778 -0.17410831 -0.15701099 -0.17746767
000350 c8 7a 22 be 82 20 c9 3d fd 8e 7c 3e 45 f3 09 be
       -0.1586715 0.098206535 0.2466392 -0.13471706
000360 e8 e2 15 3e c5 19 6d bd 9a 4e 02 3e 18 94 0d 3e
       0.14637339 -0.057885904 0.12725297 0.13826025
000370 26 05 30 3d ab 79 75 3d c5 64 2c be f7 3e 04 be
       0.04297366 0.059930485 -0.16835316 -0.12914644
000380 e2 cf f2 bd 94 b5 2c be 2a bc 6d 3e 39 51 5e 3e
       -0.11856057 -0.16866142 0.2321631 0.21710671
000390 b1 34 41 3e de 4b 43 3e 44 f4 88 be 21 1c 2c be
       0.18867756 0.1907191 -0.2674886 -0.16807605
0003a0 be ba bd bd 01 c8 05 be fb a9 09 be af ba e1 bc
       -0.09264134 -0.13064577 -0.13443749 -0.027554838
0003b0 50 1b 16 3c dc 1c fd bd 06 b0 0b 3d ad 51 a8 3d
       0.009161785 -0.1235902 0.034103416 0.082187034
0003c0 b0 ac b6 3d 4d 83 8b bc 91 9a 32 3e 67 51 07 3e
       0.08919656 -0.017030383 0.17441775 0.13214646
0003d0 d3 b0 9c bd 1d 97 ce 3c f6 84 a1 bd f5 5e 65 3c
       -0.07650914 0.02521854 -0.078866884 0.01399969
0003e0 fb 35 72 3d ab 2b d8 3d ce 14 fa 3d 5f af 37 3e
       0.05913351 0.10555204 0.122109994 0.17937993
0003f0 fb bb bf bc 2f 26 25 be 70 fc 76 3d 18 5c 43 3e
       -0.023405066 -0.16127847 0.060299337 0.190781

dnn/hiddenlayer_1/MatMul f4 [64, 128]
000000 11 e0 20 3e 21 f6 7a 3d 10 99 19 3e 3d f5 74 bc
       0.15710475 0.061269883 0.14999795 -0.0149510475
000010 e0 cf af 3d c4 a3 fc 3c 62 5b 9e bd 08 c3 0c 3e
       0.08584571 0.030839808 -0.07732274 0.13746274
000020 72 87 c3 bd c8 71 be 3d f6 ce 41 be 11 82 dc 3d
       -0.095473185 0.09299046 -0.18926606 0.10766996
000030 38 d7 0d 3b 60 fa d3 bc 50 35 05 be 71 a2 c5 3d
       0.0021643173 -0.025876224 -0.13008618 0.09650124
000040 70 ed ca 3a 2e 73 33 3e 09 b7 f1 bc 92 08 29 be
       0.0015482139 0.17524406 -0.029506223 -0.16507176
000050 59 df 54 bc bf 27 36 3e 47 82 d0 3d bf cd ae bd
       -0.012992703 0.177886 0.101810984 -0.08535337
000060 b8 68 39 be 82 b8 29 be e0 7e 39 3d 42 bb c8 bc
       -0.18106353 -0.1657429 0.045287013 -0.024503354
000070 90 66 95 bc 62 0b 1b 3c 07 84 1d be cf f4 3d bd
       -0.018237382 0.009463163 -0.15382396 -0.046376046
000080 25 ad 82 bc 6e 94 a9 3d a9 39 eb 3d 45 23 19 be
       -0.015951702 0.08280264 0.11485607 -0.1495486
000090 9a 23 7c 3d 5e a6 33 bd ef 88 e1 3d 5d 4b 17 3e
       0.06155739 -0.043859832 0.11012446 0.14774843
0000a0 94 ad ed bd c5 d1 07 bc ff e9 8f 3d fe 6f 14 3e
       -0.11605373 -0.008289759 0.07027053 0.14495847
0000b0 03 2a d2 bd 60 d3 f7 3d e1 d9 41 be 6f 9a ee bd
       -0.10261919 0.121008635 -0.1893077 -0.116505496
0000c0 db 1e cc bd 88 47 6f bc 5f 66 5b 3d 5a e6 20 3e
       -0.09966823 -0.014604457 0.053564426 0.15712872
0000d0 68 98 06 be 54 9c 43 bd 7f d2 47 3e e6 18 bc bd
       -0.13144076 -0.047756508 0.19513892 -0.091844365
0000e0 3c bc d3 bd b5 82 89 3d f4 4d 18 3e 66 7e 08 3e
       -0.10338637 0.067143835 0.14873487 0.13329467
0000f0 92 0e c6 3d 1e af 94 bd 9f f1 0b 3e 6b 36 c1 3d
       0.09670748 -0.072599635 0.1366639 0.094342075
000100 f3 07 f1 3d 28 1b 22 bc 39 a0 ff bd dc 7b 26 be
       0.11769094 -0.00989417 -0.12481732 -0.16258186
000110 76 ea e4 3d 62 f8 f5 3d aa 51 a1 bd e4 c5 cc 3d
       0.111775324 0.12010266 -0.07876904 0.09998682
000120 90 03 bb bd f5 27 13 3e 28 e4 d2 bd 0c 6a 7d 3d
       -0.09131539 0.14370711 -0.102974236 0.061868712
000130 0f 99 07 be a1 80 0a 3d 15 23 16 3e 18 26 21 3e
       -0.13241981 0.033814076 0.1466182 0.15737188
000140 11 1a b8 bd 4c 29 35 be 7d 35 41 3e 29 37 0e 3d
       -0.08989347 -0.17691535 0.1886806 0.034720574
000150 cc 68 f5 bd 69 20 21 3e 1d 2d 9c bd e8 53 17 3d
       -0.11982879 0.1573502 -0.07625792 0.036945254
000160 08 98 f0 3d 32 f6 a3 bb b5 6b ca 3d 7d 71 13 be
       0.11747748 -0.005003714 0.09883825 -0.14398761
000170 5d ea 25 be 39 1b 84 bd 6a 55 25 be 2d 0e ba bc
       -0.16202684 -0.06450505 -0.16145864 -0.022711838
000180 8c d7 35 3d 76 3f e0 bd 26 76 36 3e 53 2c d3 bd
       0.044395015 -0.10949604 0.17818508 -0.103111885
000190 91 e4 4b 3d bd 78 2b be 4b 6f 84 bd c8 eb 51 bd
       0.049778525 -0.16745277 -0.0646654 -0.05125025
0001a0 a8 5c 56 3d 30 eb 27 bd 1e 81 1e 3e ba 12 fc bd
       0.052334458 -0.040995777 0.15478942 -0.12308259
0001b0 90 e0 0e 3e 6a 37 b3 bd 7e 1a f8 bd 1f 15 01 3d
       0.13952851 -0.08750804 -0.12114428 0.031514283
0001c0 a1 57 19 3e c2 3b b3 3d 39 4b 90 bd f8 fe 07 3e
       0.14974834 0.08751632 -0.070455976 0.13280857
0001d0 f2 2d 20 be f7 fd 49 bd 63 56 c0 3d 8d 21 59 bc
       -0.15642527 -0.049314465 0.09391477 -0.013252628
0001e0 81 ba 5b bc 52 30 53 bc ca 58 15 3e 9c aa c6 bd
       -0.013411165 -0.012889938 0.14584652 -0.0970051
0001f0 e0 6e fb 3c 12 51 2c bd 21 8d e5 3d ad 67 72 3c
       0.030692518 -0.042069502 0.11208559 0.014795226
000200 b3 bf c1 3c 1a be 96 bd 1d 73 14 3e 3f 30 eb bd
       0.02365098 -0.07360478 0.14497037 -0.114838116
000210 98 d0 26 be c1 1e 1c be ec e0 24 bd 54 90 e8 3d
       -0.1629051 -0.15246107 -0.040253565 0.113556534
000220 5d 1f 9d 3d 9d 26 83 bd 9a 3a da bc 73 41 b9 bc
       0.07671998 -0.06403849 -0.026639272 -0.022614216
000230 7b 09 8f 39 ae e7 22 be 10 df cf 3d e5 90 2c be
       0.0002728215 -0.15908691 0.10149968 -0.16852148
000240 fe eb b8 bd a7 38 26 3e 94 dc ee 3b be 34 6b be
       -0.09029387 0.16232549 0.0072894786 -0.22969338
000250 d8 9e 72 bd 6e fa 88 3d 62 3e cf 3d d6 a1 e3 3d
       -0.059233516 0.06688391 0.101193205 0.11114852
000260 fd 02 c0 3d 6b d3 a6 3d cb c4 19 be 9b ad 0e 3e
       0.0937557 0.081457935 -0.15016477 0.13933413
000270 30 08 55 be 9a d0 d0 bc 67 ba 0d be 7b 71 bb bd
       -0.20803905 -0.025490094 -0.13840638 -0.09152504
000280 c1 25 bc 3d 42 3e 8c bd ef 0c 3d 3e af ba c7 bd
       0.091868885 -0.06847812 0.18461965 -0.09752404
000290 34 f0 90 3d 81 1e 31 be ec ce 2d 3e 76 5d f1 3d
       0.07077065 -0.17296793 0.16973466 0.117854044
0002a0 4a a8 15 bd 58 a2 18 bd d3 c2 25 3e 46 c9 1d 3e
       -0.036537446 -0.037264198 0.16187601 0.15408811
0002b0 54 8a 87 ba d0 05 29 be be 50 cb bd 76 d0 1f 3e
       -0.0010340908 -0.16506124 -0.0992751 0.15606865
0002c0 c3 64 67 3d 84 57 ba bc 83 b6 af 3d ad 84 81 bd
       0.05649258 -0.022746809 0.08579733 -0.06324134
0002d0 f9 99 d5 bb a7 21 0c be 61 47 38 3e 78 42 09 3d
       -0.006518599 -0.13684712 0.17995979 0.033510655
0002e0 65 f3 f8 bc 38 9e 86 3d 00 2d e6 3d 60 25 2a 3e
       -0.030389497 0.065731466 0.11239052 0.1661582
0002f0 9f 0a 01 3e fd 72 73 bd a8 fa b1 3d 6f db 00 be
       0.12601708 -0.059435833 0.08690387 -0.12583707
000300 64 a8 2f bd 69 63 ed 3d c2 59 5f bc 08 c6 08 be
       -0.0428852 0.115912266 -0.01363224 -0.13356793
000310 5d 04 73 bc 36 41 eb 3d 94 97 09 3e f1 6b 02 be
       -0.014832583 0.114870474 0.13436729 -0.12736489
000320 0f 89 5b bb fe e0 af 3d 20 bb 28 3e cf ab e4 bd
       -0.0033498441 0.08587836 0.16477633 -0.111655824
000330 f5 e5 f6 3d 58 6b 89 3c a3 c1 82 3c 6f c8 df 3a
       0.120555796 0.016774818 0.015961474 0.0017073284
000340 7b 9e cf 3d c3 83 01 be 58 1b 09 3e 38 75 05 be
       0.101376496 -0.1264792 0.13389337 -0.13032997
000350 11 70 15 3e d5 65 d0 3c f0 76 0f 3e 83 9c 56 3d
       0.14593531 0.025439182 0.14010215 0.052395355
000360 5d 1d 8b bd 00 0c 4b 3e f9 f7 f7 bb fc 9a c9 bd
       -0.0679271 0.19828796 -0.0075674024 -0.09844014
000370 4e e1 13 be f8 93 00 be 50 89 ec 3d f4 a5 11 be
       -0.14441416 -0.12556446 0.11549628 -0.14223462
000380 ea 0f 87 3b 15 20 0c 3d 1c 57 1c bd 42 7c cb 3c
       0.00412177 0.034210283 -0.03816901 0.024839524
000390 e7 f2 d6 bc c7 5c 27 3e 00 99 0f be 07 b7 e0 bb
       -0.026238872 0.16343985 -0.14023209 -0.006857756
0003a0 ee 86 b0 bd 57 fd 63 bd 54 44 19 3e b6 1b 4a be
       -0.08619486 -0.055661526 0.14967471 -0.19737133
0003b0 c4 62 8d 3d 3a 6d e0 3d 30 d8 1c 3d e2 4a e6 bd
       0.06903604 0.10958333 0.03829211 -0.112447515
0003c0 15 1d f2 3d 8f 9e 17 3d cc 76 77 bd 8b 74 64 3d
       0.11821953 0.037016448 -0.060416028 0.055775207
0003d0 b9 62 1a bd a6 08 7b bd 88 55 02 bb bf 37 23 be
       -0.037691806 -0.061287545 -0.0019887406 -0.15939234
0003e0 53 64 a9 3c 2c be 22 3e d7 01 31 be 8d 7b 6d 3d
       0.020677721 0.15892857 -0.17285858 0.057979155
0003f0 c2 6d ad 3d ad 79 23 be d1 82 c4 3d cc 69 e2 3d
       0.084682 -0.15964384 0.09595264 0.110553354

dnn/logits/MatMul f4 [1, 64]
000000 17 0e 0f 3e a2 e7 91 be e3 24 d3 3d 1c 37 c8 3e
       0.13970219 -0.28497034 0.1030977 0.39104545
000010 df 96 89 be 7a 84 9e 3e a3 cb 64 3e a5 8b 9f 3e
       -0.26872918 0.30960447 0.22343306 0.31161228
000020 05 0f 27 3f d4 c7 43 3e ff 8f 4f be 71 6a 44 be
       0.65257293 0.19119197 -0.20269774 -0.19181229
000030 44 0b 93 3e 87 98 c2 3e 47 9c 2d 3d c2 c0 86 3e
       0.28719532 0.38006994 0.042385366 0.26318938
000040 18 ad 06 bc 99 cb 8a 3e 96 2d 74 bd 92 a3 44 3e
       -0.00821998 0.27108458 -0.059613787 0.19203022
000050 f2 ff 34 be a9 a8 fe 3d 1c 76 cd 3e 27 dd 50 be
       -0.1767576 0.12434513 0.40129173 -0.20396863
000060 f0 ac 06 3e d8 45 ac be 6e 70 a1 be e4 15 8e 3e
       0.13151908 -0.33647037 -0.3153109 0.27751076
000070 6b 76 bc 3e 8e 73 91 bd ca e9 cd bd 49 3a f6 3c
       0.36809096 -0.071021184 -0.10054357 0.03005709
000080 1a aa ad 3e 6b 4b b3 3d fb 4a b1 be 5f 12 0c 3e
       0.3391884 0.08754619 -0.34627518 0.13678883
000090 b6 02 3b 3e 08 21 09 be 3e 95 4f be 7d 1e 7c 3e
       0.18262753 -0.13391507 -0.20271775 0.24621005
0000a0 ee ff aa be a9 93 30 be a9 85 38 be 64 92 88 be
       -0.33398384 -0.17243828 -0.18019737 -0.26674187
0000b0 2c 05 10 be 05 2c dc bd d4 4e 8a 3e 49 a4 4f 3e
       -0.14064473 -0.107505836 0.27013266 0.20277514
0000c0 4b 23 01 be 80 0f 5d be 3a 8a 7e be 77 7c 1e be
       -0.1261112 -0.21587944 -0.24857417 -0.15477167
0000d0 c1 65 a4 be 3d 74 20 3e 23 37 c2 3e 62 2e 63 be
       -0.32108882 0.15669341 0.3793269 -0.22185662
0000e0 fe 76 ae 3e 3b 03 f2 bd 72 de 9e 3e c0 9c b1 3e
       0.3407516 -0.118170224 0.31029087 0.34689903
0000f0 2a 95 99 3e 45 d5 bf bd 19 a2 fb bd c9 7b d1 3e
       0.29996616 -0.0936685 -0.12286777 0.40914753
